{"format": "layers-model", "generatedBy": "keras v3.11.3", "convertedBy": "TensorFlow.js Converter v4.22.0", "modelTopology": {"keras_version": "3.11.3", "backend": "tensorflow", "model_config": {"class_name": "Functional", "config": {"name": "bike_count_model", "trainable": true, "layers": [{"class_name": "InputLayer", "config": {"batch_shape": [null, 10], "dtype": "float32", "sparse": false, "ragged": false, "name": "input_features"}, "name": "input_features", "inbound_nodes": []}, {"class_name": "Dense", "config": {"name": "hidden1", "trainable": true, "dtype": {"module": "keras", "class_name": "DTypePolicy", "config": {"name": "float32"}, "registered_name": null}, "units": 128, "activation": "relu", "use_bias": true, "kernel_initializer": {"module": "keras.initializers", "class_name": "GlorotUniform", "config": {"seed": null}, "registered_name": null}, "bias_initializer": {"module": "keras.initializers", "class_name": "Zeros", "config": {}, "registered_name": null}, "kernel_regularizer": null, "bias_regularizer": null, "kernel_constraint": null, "bias_constraint": null}, "name": "hidden1", "inbound_nodes": [{"args": [{"class_name": "__keras_tensor__", "config": {"shape": [null, 10], "dtype": "float32", "keras_history": ["input_features", 0, 0]}}], "kwargs": {}}]}, {"class_name": "Dropout", "config": {"name": "dropout", "trainable": true, "dtype": {"module": "keras", "class_name": "DTypePolicy", "config": {"name": "float32"}, "registered_name": null}, "rate": 0.3, "seed": null, "noise_shape": null}, "name": "dropout", "inbound_nodes": [{"args": [{"class_name": "__keras_tensor__", "config": {"shape": [null, 128], "dtype": "float32", "keras_history": ["hidden1", 0, 0]}}], "kwargs": {"training": false}}]}, {"class_name": "Dense", "config": {"name": "hidden2", "trainable": true, "dtype": {"module": "keras", "class_name": "DTypePolicy", "config": {"name": "float32"}, "registered_name": null}, "units": 64, "activation": "relu", "use_bias": true, "kernel_initializer": {"module": "keras.initializers", "class_name": "GlorotUniform", "config": {"seed": null}, "registered_name": null}, "bias_initializer": {"module": "keras.initializers", "class_name": "Zeros", "config": {}, "registered_name": null}, "kernel_regularizer": null, "bias_regularizer": null, "kernel_constraint": null, "bias_constraint": null}, "name": "hidden2", "inbound_nodes": [{"args": [{"class_name": "__keras_tensor__", "config": {"shape": [null, 128], "dtype": "float32", "keras_history": ["dropout", 0, 0]}}], "kwargs": {}}]}, {"class_name": "Dropout", "config": {"name": "dropout_1", "trainable": true, "dtype": {"module": "keras", "class_name": "DTypePolicy", "config": {"name": "float32"}, "registered_name": null}, "rate": 0.3, "seed": null, "noise_shape": null}, "name": "dropout_1", "inbound_nodes": [{"args": [{"class_name": "__keras_tensor__", "config": {"shape": [null, 64], "dtype": "float32", "keras_history": ["hidden2", 0, 0]}}], "kwargs": {"training": false}}]}, {"class_name": "Dense", "config": {"name": "hidden3", "trainable": true, "dtype": {"module": "keras", "class_name": "DTypePolicy", "config": {"name": "float32"}, "registered_name": null}, "units": 32, "activation": "relu", "use_bias": true, "kernel_initializer": {"module": "keras.initializers", "class_name": "GlorotUniform", "config": {"seed": null}, "registered_name": null}, "bias_initializer": {"module": "keras.initializers", "class_name": "Zeros", "config": {}, "registered_name": null}, "kernel_regularizer": null, "bias_regularizer": null, "kernel_constraint": null, "bias_constraint": null}, "name": "hidden3", "inbound_nodes": [{"args": [{"class_name": "__keras_tensor__", "config": {"shape": [null, 64], "dtype": "float32", "keras_history": ["dropout_1", 0, 0]}}], "kwargs": {}}]}, {"class_name": "Dense", "config": {"name": "bike_count", "trainable": true, "dtype": {"module": "keras", "class_name": "DTypePolicy", "config": {"name": "float32"}, "registered_name": null}, "units": 1, "activation": "relu", "use_bias": true, "kernel_initializer": {"module": "keras.initializers", "class_name": "GlorotUniform", "config": {"seed": null}, "registered_name": null}, "bias_initializer": {"module": "keras.initializers", "class_name": "Zeros", "config": {}, "registered_name": null}, "kernel_regularizer": null, "bias_regularizer": null, "kernel_constraint": null, "bias_constraint": null}, "name": "bike_count", "inbound_nodes": [{"args": [{"class_name": "__keras_tensor__", "config": {"shape": [null, 32], "dtype": "float32", "keras_history": ["hidden3", 0, 0]}}], "kwargs": {}}]}], "input_layers": ["input_features", 0, 0], "output_layers": ["bike_count", 0, 0]}}, "training_config": {"loss": "mse", "loss_weights": null, "metrics": ["mae"], "weighted_metrics": null, "run_eagerly": false, "steps_per_execution": 1, "jit_compile": false, "optimizer_config": {"class_name": "Adam", "config": {"name": "adam", "learning_rate": 0.0010000000474974513, "weight_decay": null, "clipnorm": null, "global_clipnorm": null, "clipvalue": null, "use_ema": false, "ema_momentum": 0.99, "ema_overwrite_frequency": null, "loss_scale_factor": null, "gradient_accumulation_steps": null, "beta_1": 0.9, "beta_2": 0.999, "epsilon": 1e-07, "amsgrad": false}}}}, "weightsManifest": [{"paths": ["group1-shard1of1.bin"], "weights": [{"name": "bike_count/kernel", "shape": [32, 1], "dtype": "float32"}, {"name": "bike_count/bias", "shape": [1], "dtype": "float32"}, {"name": "hidden1/kernel", "shape": [10, 128], "dtype": "float32"}, {"name": "hidden1/bias", "shape": [128], "dtype": "float32"}, {"name": "hidden2/kernel", "shape": [128, 64], "dtype": "float32"}, {"name": "hidden2/bias", "shape": [64], "dtype": "float32"}, {"name": "hidden3/kernel", "shape": [64, 32], "dtype": "float32"}, {"name": "hidden3/bias", "shape": [32], "dtype": "float32"}]}]}